checkpoints/dqn/model.pt (torch, 19863 bytes, 6 tensors)

layer1.weight f4 [64, 2]
000000 64 62 a0 bd da 2a 69 3d 05 70 bc 3b d3 7e 93 bd
       -0.078312665 0.056925632 0.0057506585 -0.07201924
000010 7e 1c 8f bc 92 12 04 3d 7b 56 17 be 27 88 35 bd
       -0.01746964 0.032244273 -0.14779083 -0.044319298
000020 e9 31 1f 3c b4 2c 8d bb cc 7e 49 bd 74 f6 2b 3d
       0.009716489 -0.0043083075 -0.04919319 0.041983083
000030 f3 d9 da 3e c3 88 f2 be 65 ae f9 bb d3 54 a3 bd
       0.42744407 -0.47369966 -0.0076196664 -0.07975163
000040 d3 b8 81 3d 2d be 5b 3c 25 bc d5 3e be 68 02 bf
       0.063340805 0.013412041 0.41745105 -0.50941074
000050 5a ba 15 bf a2 8a 14 3f 7e 9c 4c 3f e2 08 54 bf
       -0.58487475 0.58024037 0.7992629 -0.82826054
000060 95 b7 43 be c5 5e 01 bf 07 7b be 3c bd 2b 13 be
       -0.19113 -0.5053523 0.023252023 -0.14372154
000070 fc 09 43 bf 22 91 46 be 21 e2 73 be c9 7c 0b bf
       -0.7618711 -0.19391301 -0.2381673 -0.5448728
000080 47 fd 48 bf e1 99 36 3f 42 b9 e4 be 99 c0 d9 3e
       -0.7851147 0.7132855 -0.4467259 0.42529753
000090 ca 74 7c bb 3f d4 8c 3c e3 14 08 3f 92 0e 06 bf
       -0.003852176 0.01719105 0.5315687 -0.5236598
0000a0 39 bf 9c bf 8d 73 6f 3f 22 80 8e bd bd b4 26 3d
       -1.2245857 0.9353569 -0.06958033 0.04069971
0000b0 36 b2 09 bd 45 87 32 3c e2 41 38 bf bf 35 03 be
       -0.03361722 0.010896509 -0.7197553 -0.12813471
0000c0 19 36 0c bf c9 13 0a 3f 77 a4 f0 bd fc fd d9 bc
       -0.54770046 0.5393644 -0.11750119 -0.026610367
0000d0 0c f2 af 3a 3b c1 d3 bd 55 b9 c3 3d 6e a7 6d 3e
       0.0013423576 -0.1033959 0.09556834 0.232084
0000e0 db 9c 95 3c 55 14 e6 3c 56 e7 a9 bd 36 ce 93 bd
       0.018263271 0.028085867 -0.08296077 -0.07217066
0000f0 03 15 1c bf af 17 1a 3f ec 53 b4 be 28 f0 6a be
       -0.6096956 0.6019239 -0.35220277 -0.22943175
000100 44 fb 99 3e f4 4d 32 bf c9 0f da 3e d3 73 f2 be
       0.30074513 -0.696502 0.42590168 -0.47353992
000110 3c 3e 60 be 0a ec 23 3e e9 ce 13 bd 7a 7a 58 bd
       -0.2189874 0.1600801 -0.036085997 -0.052851178
000120 a0 52 f7 be ab dc 02 3f bc fa bf 3d c6 11 6b 3d
       -0.48305225 0.5111796 0.09373996 0.057389997
000130 05 52 b8 3e d8 e2 9e 3e a6 1b b0 bb bb 1c 77 3d
       0.36000076 0.31032443 -0.0053743897 0.060330134
000140 a9 22 3a 3d 16 ae af bd 90 fd 10 bf fe ee 0a 3f
       0.04544321 -0.08578126 -0.56636906 0.54270923
000150 0c 15 51 bf fa 30 3f 3f bf 0d bf bd 79 2f 99 bd
       -0.8167274 0.7468411 -0.09328794 -0.07479758
000160 ab 36 06 3c 3e 70 a4 3d 56 c6 fd bd 32 86 db bc
       0.008191745 0.08029221 -0.12391345 -0.026797388
000170 bc 73 e0 3d 84 83 5d 3d 36 69 26 ba d9 70 74 bd
       0.109595746 0.0540805 -0.0006348075 -0.059677932
000180 2c 9d 6e bd 71 2a 2d bd bb de 48 3f f5 5d 60 bf
       -0.05825536 -0.042276803 0.7846486 -0.8764337
000190 50 ee 6c be 1a e1 6f bd 0b 0d 02 bf 4b 5a f7 3e
       -0.23137784 -0.058564283 -0.5080115 0.48311076
0001a0 18 16 11 3f 1e 22 13 bf bb 79 4a be 58 bd ed bd
       0.5667434 -0.57473934 -0.19772999 -0.1160838
0001b0 52 2d f4 3d d2 00 89 bd 7e 43 ef bb c8 15 22 be
       0.11922707 -0.066896096 -0.007301747 -0.15828621
0001c0 0f ba ca 3e 84 1c c9 be 2f 76 cf 3c 8f 94 91 bd
       0.39595076 -0.39279568 0.025324909 -0.071084134
0001d0 14 0b 00 bf 90 e3 f3 3e e8 76 e3 be 96 c1 08 3f
       -0.50016904 0.47634554 -0.44426656 0.5342039
0001e0 b0 5b 1b 3c bd ed cb bb d9 61 ea 3e 55 ce 0b bf
       0.009482309 -0.006223409 0.45777777 -0.5461171
0001f0 87 3b 71 3f ba 75 6d bf 2b 5c cc 3b 6b 37 58 bc
       0.94231457 -0.9275776 0.006236573 -0.013196806

layer1.bias f4 [64]
000000 5c 5a 29 be d8 32 9a bd 3f 36 c3 bd 5b 39 8a 3d
       -0.16538376 -0.07529229 -0.09531831 0.06749221
000010 59 55 8f bc 7f 25 f4 bd 9e 72 48 3e 1b 9e 00 be
       -0.017496752 -0.11921214 0.19574973 -0.12560312
000020 73 73 03 be 83 71 80 3e 8a 54 4f 3e 40 60 ce be
       -0.12837009 0.25086603 0.20247093 -0.40307808
000030 4c 53 7f 3e 5f aa 2d bd 59 c4 a1 3e 6f 84 8d 3e
       0.24934119 -0.042398807 0.31595114 0.276401
000040 50 2f a6 be 1d 8a a0 3c ab ff 8a bc 57 e6 38 3b
       -0.32457972 0.019597108 -0.016967615 0.0028213465
000050 3d 33 32 be bd 76 8d bd 97 ef b2 bd 91 61 89 3e
       -0.17402358 -0.06907413 -0.087371044 0.2683225
000060 5a 6c 4d 3e 44 f2 37 bd 5c de 83 bd 5e 11 2c be
       0.20060864 -0.044908777 -0.06438896 -0.168035
000070 4a 95 5f bd a6 10 b4 bd e3 ab 57 3e 8f b3 5a 3e
       -0.054585733 -0.08792238 0.21061663 0.21357559
000080 19 2c c8 3c 75 cf 48 3e 20 74 02 3e 58 45 bf bd
       0.02443509 0.19610389 0.1273961 -0.09339398
000090 a1 2f 0c bd 8b 1a 18 be 63 40 e2 be 3a 28 16 be
       -0.03422511 -0.14853875 -0.44189748 -0.14663783
0000a0 1c 45 53 bd 19 c0 a0 3e da 62 be be 88 f3 e8 bd
       -0.05157958 0.3139656 -0.37184793 -0.11374575
0000b0 de 28 e1 bd 2d 4f 3f bd d4 0e 33 be 56 01 d2 bd
       -0.10994123 -0.046706367 -0.17486125 -0.10254161
0000c0 15 db 29 be 1a dd dd be 12 cf c4 3d 70 1f 16 3c
       -0.1658748 -0.4333275 0.09609808 0.009162769
0000d0 2a c8 82 3c c6 02 30 bc 56 35 f1 bd 4b 89 4b bd
       0.015964586 -0.010742849 -0.11777751 -0.04969148
0000e0 0f 5b 8e 3c 73 ab 01 be 1a 9f 4f 3c 95 92 86 be
       0.017377404 -0.12663059 0.01267221 -0.26283708
0000f0 cf 9b 19 bc 3e 49 8c 3e 87 d7 f6 be 5f 8f 4f bd
       -0.009375527 0.2739963 -0.4821131 -0.05067384

layer2.weight f4 [64, 64]
000000 04 a7 93 3c fa 41 51 3c 1a de 51 b9 71 e9 0f bc
       0.018023975 0.012772078 -0.00020014532 -0.008783684
000010 01 c8 97 3b 52 b1 ea 3c 34 c4 55 3e d8 ca 1a bb
       0.0046319966 0.028649006 0.20875627 -0.002361944
000020 ac ad 96 3b 4e 7b 02 3e 58 48 9e be 04 56 8e bf
       0.00459834 0.1274235 -0.3091457 -1.112
000030 cb e5 91 bb 2b a5 82 3b 37 85 57 bd ef 60 d8 3d
       -0.0044524423 0.0039869747 -0.052617278 0.105653636
000040 c9 ff b7 bf 0e 28 06 3f e7 f2 0e bc ba fe e4 3e
       -1.4374934 0.5240487 -0.008724905 0.4472559
000050 0c 3b e5 bd 51 46 b8 bc c4 f6 89 bc db 55 23 bd
       -0.11192903 -0.022494467 -0.0168413 -0.0398768
000060 e4 24 db be 7b cd f8 bb 68 a1 9c bc 11 1d 84 3e
       -0.42801583 -0.0075928546 -0.019119933 0.25803426
000070 8b 58 84 3b 01 b5 b5 3c 72 4a 5f be 58 69 c2 bc
       0.0040388755 0.022181036 -0.21805742 -0.023731872
000080 23 41 8f 3d eb 17 4f 3e f1 25 84 bd 21 73 c0 3b
       0.06994846 0.20223968 -0.06452549 0.0058730994
000090 ab f3 72 3e d9 c2 44 bc 8e 83 cf be d3 97 18 3d
       0.23725764 -0.012009346 -0.40530056 0.037254166
0000a0 09 5e 8a b9 3e e5 e2 be 86 11 89 bf 3d 63 d4 3a
       -0.00026391473 -0.44315523 -1.0708473 0.0016203892
0000b0 6a 53 49 bc 25 56 92 bb 54 cc bf bc 4b f0 92 bc
       -0.012287954 -0.0044658356 -0.02341286 -0.017936846
0000c0 58 c3 9b 3b 6a 20 cd bf 01 75 16 bd 6f 03 1c 3f
       0.0047535114 -1.6025517 -0.036732677 0.6094274
0000d0 ae 1c 55 3f b9 c6 3a bc 94 21 c2 bb 6f ff 12 3d
       0.83246887 -0.011399918 -0.005924413 0.03588813
0000e0 11 0c fd 3e 6f 44 8f bb 5f 89 d6 3e b7 40 8f 3b
       0.49423268 -0.0043721716 0.4190168 0.0043717283
0000f0 33 4a 3d 3c d3 1e 60 3e 51 35 9f bf ef 6b 19 3a
       0.011553335 0.21886759 -1.2438146 0.000585257
000100 0e 7a 23 bc b9 e9 87 3c 29 6b 6c 3c ec 74 a6 bd
       -0.009977831 0.01659094 0.014429846 -0.0812777
000110 5a 27 f9 ba bb b7 83 3c 69 f5 0e bc 9e c4 49 bc
       -0.001900892 0.01607882 -0.0087255025 -0.012314944
000120 84 47 28 bc 2f 93 11 bc 0b 9b 1b bd 8b b9 a9 3c
       -0.010270957 -0.008885189 -0.037989657 0.020718357
000130 63 30 31 bd 4d b4 84 bc a4 08 66 bd 3c a9 f5 bb
       -0.043259036 -0.016199255 -0.056160584 -0.007496981
000140 70 b5 40 bd 4f dd 8a bd 59 fb 97 bd 1a fd 7c 3c
       -0.047048032 -0.067804925 -0.07420988 0.0154412035
000150 6b aa 1b bc b9 68 93 bc 47 b9 16 3c 52 34 9b bd
       -0.00950108 -0.017994272 0.009199447 -0.07578339
000160 d5 56 39 bd a3 fb a6 3c 4b ef 6c 3c d0 aa 5b bd
       -0.045248825 0.020383662 0.014461349 -0.053629696
000170 05 bc 11 3b 80 10 80 bc c6 a0 a6 bd d0 1c 7c bd
       0.0022237313 -0.015632868 -0.08136134 -0.061550915
000180 be 6d ac 3c 18 96 51 bc 32 43 5f bd 45 7a ac bc
       0.021048423 -0.012792133 -0.05450744 -0.021054396
000190 0a 9a 4e bd 91 a8 28 3c 21 39 2a bc 7a 00 ef bb
       -0.05043987 0.010294096 -0.010389597 -0.007293758
0001a0 96 fa 5f bb 10 e2 69 bd 81 0d 7e bd 87 8a 28 bc
       -0.003417646 -0.057100356 -0.062024597 -0.010286934
0001b0 ee 3a 97 3c 42 f3 b9 bc dc e1 86 3b cf c0 ad bc
       0.018460717 -0.022699002 0.00411628 -0.021210102
0001c0 4d 4c b3 bb 2b a4 84 bc 65 d7 6c bd 39 c0 45 bd
       -0.0054717422 -0.016191563 -0.057822604 -0.04827902
0001d0 60 27 34 3c 1f 7a 86 bb 9b 42 47 bb 10 80 a4 3c
       0.010995716 -0.0041039134 -0.003040469 0.020080596
0001e0 77 0e 82 ba b3 67 8b 3c 7f cc 54 bd 95 fe 77 bd
       -0.0009922524 0.017017221 -0.051952835 -0.060545523
0001f0 90 28 78 bd c9 9a a1 bb ce c5 8c bc 96 8b e5 bb
       -0.06058556 -0.004931782 -0.017184164 -0.0070051653
000200 63 c5 8a 3c fd e8 63 3c 7a 8f df ba 3d a6 81 bc
       0.016939824 0.013910529 -0.0017056309 -0.015826339
000210 6f c4 23 3c 9b c2 f5 3b 45 ed 8a 3b 20 b7 9d 3c
       0.009995564 0.0075000054 0.0042397105 0.01925236
000220 48 29 4d bc e2 ec 35 bc 0d d3 0a bd 3e e7 12 bc
       -0.012522049 -0.011103841 -0.03389268 -0.008966265
000230 0d 10 55 bc b2 e1 0c 3c eb 8d 12 bd 11 39 ff 3b
       -0.013004315 0.008598732 -0.035779875 0.0077887853
000240 84 bb 3d bc 13 9a 52 bb d7 3a c9 bb cd 8e 64 bc
       -0.011580352 -0.0032135292 -0.0061410475 -0.013950062
000250 4c 10 9e 3c ef e7 80 3c 17 ff 96 bc e0 80 e6 bc
       0.01929488 0.015735595 -0.018432183 -0.028137624
000260 0f 42 0c bd 0e 5b 5b bc b1 36 ad bc 5f 48 d3 bb
       -0.034242686 -0.013388408 -0.021144243 -0.0064478363
000270 cc 20 31 3a 22 44 a2 3c f1 aa c8 3b 92 dc b9 3b
       0.0006756901 0.019807879 0.0061238934 0.005672046
000280 b4 41 68 bc 68 ad bf bb 6b 75 6d 3b 94 bb 40 3c
       -0.014175821 -0.005849529 0.0036233317 0.011763472
000290 ae 93 ca 3b fb 84 bd bb 9b 42 e5 3c 20 46 ec 3a
       0.0061821556 -0.005783675 0.027985862 0.001802627
0002a0 72 50 35 bc 0e 0b 93 bb 39 57 87 bc 65 76 92 bc
       -0.011066543 -0.004487402 -0.016521083 -0.01787872
0002b0 4a 1b 4f 3a 16 f7 cf 3b 32 09 79 bc dc e4 d9 3b
       0.000790049 0.0063465936 -0.015199946 0.0066495966
0002c0 db 8b a6 ba 9a 04 fb bc d6 8c 7b 3b 79 53 5b bc
       -0.0012706475 -0.030641843 0.0038383505 -0.013386601
0002d0 96 c4 41 3c 6a ba bf 3b 20 67 da 3a 1f 4f 14 bb
       0.011826655 0.0058510797 0.0016662814 -0.0022630168
0002e0 dd 52 b7 38 1d e1 b3 3b 13 f0 db bc 23 67 6e bc
       8.7415545e-05 0.005489482 -0.026847875 -0.014550957
0002f0 92 cf e0 bc 1c 96 b5 bc 94 e4 e0 3b 50 27 24 bc
       -0.027442727 -0.022166304 0.006863186 -0.010019138
000300 e2 44 7a bd e1 7c cc bb 46 2c b7 b9 a5 d7 8b 3d
       -0.061100848 -0.0062404727 -0.00034937466 0.0682824
000310 ae b5 d9 ba f1 30 8b bd f7 01 b2 bf a4 bf b4 bb
       -0.0016609931 -0.06796444 -1.390685 -0.0055160094
000320 bd 38 98 bb 86 5a 87 bf c0 f2 f3 3e 45 ff ed bd
       -0.0046454356 -1.05745 0.4764614 -0.116209544
000330 59 01 b9 bd b2 d0 e7 3c cb 68 fd 3e c1 80 d2 be
       -0.0903346 0.028297756 0.49494013 -0.41113856
000340 dc a2 2e c0 56 58 4c 3e 07 fa b6 3b 6f 94 18 bf
       -2.7286901 0.19955572 0.005584005 -0.5960149
000350 ec bc 51 bf ce 84 49 bc a5 6f ad 3c cb 1e a0 3e
       -0.81928897 -0.0122997295 0.0211714 0.31273493
000360 df 16 26 3f f5 1e 87 bc 5c 22 a4 bc 1b c4 f1 bd
       0.6487865 -0.016494254 -0.020035915 -0.11804982
000370 72 76 40 3b 11 1b 07 3c 86 f2 c1 3e 68 8e ca 3e
       0.0029367474 0.008246199 0.37880343 0.39561772
000380 40 b2 84 be a2 b7 b1 bf 22 0c 2b 3e 87 e5 af ba
       -0.25917244 -1.3884165 0.16703847 -0.0013419845
000390 83 f8 9b bd 2a c9 88 bd 27 d3 c2 be b0 8b 95 bc
       -0.07615759 -0.06678994 -0.3805172 -0.018255085
0003a0 35 58 e9 3b c9 9f 23 3f 05 53 6c c0 34 22 9b 3c
       0.007121111 0.6391569 -3.692567 0.018937208
0003b0 0a c0 be 3c 56 87 5f bc d0 1d 2c bd bd 7f 84 3c
       0.02328493 -0.013643106 -0.04202062 0.016174192
0003c0 89 35 b6 bd ba ea d2 bd 26 fd 03 3e 33 45 d1 3e
       -0.0889693 -0.10298677 0.12889537 0.40873107
0003d0 c7 94 a3 be 56 52 67 3c 6a 99 0c 3c 34 46 88 bc
       -0.31949446 0.0141187515 0.008581499 -0.016635038
0003e0 d3 50 64 be c2 bf c6 bb ae a1 41 3e c7 b3 a1 be
       -0.22296457 -0.00606534 0.18909332 -0.31582472
0003f0 53 66 40 bc 89 25 db bf 2c 71 55 bd b8 c2 b6 bc
       -0.011743146 -1.712083 -0.052109882 -0.022309646

layer2.bias f4 [64]
000000 0d f1 af 3d b2 82 93 bd 1a f0 bd bc 11 ff f3 3e
       0.08590899 -0.072026625 -0.023185778 0.47655538
000010 d7 5e 7c 3d 5c c1 7c bd 18 ba 8e 3d cb 13 88 3d
       0.061613884 -0.06170784 0.06969088 0.066444
000020 f1 58 fe bc 71 16 39 bd b8 b3 a7 bc 2b bb 82 bd
       -0.03104827 -0.045187417 -0.020471439 -0.06383356
000030 37 9f a3 be 0b 3d c6 bb 60 5b 90 3d 61 d9 bd 3d
       -0.3195741 -0.0060497574 0.070486784 0.09269977
000040 7f 75 4d bd 67 74 2f 3b c7 0d ba bc ae ae c3 bb
       -0.05016088 0.0026772262 -0.022711648 -0.005971751
000050 ab 65 83 bc 95 8c 1e bc 9f f2 81 bc 32 b3 cd bc
       -0.01603969 -0.009677072 -0.015862761 -0.025109861
000060 b8 9a 1b be 9a 37 f5 bd 9e 70 00 bd 86 6c 7d 3d
       -0.1519574 -0.11973496 -0.0313574 0.061871074
000070 a5 0a 24 3f 42 cf b2 bc 95 ac d5 bc b7 3a c9 bb
       0.6407874 -0.021827344 -0.02608327 -0.0061410326
000080 92 48 88 bd 15 14 a0 3e 7e b2 a8 3d 02 c3 77 3d
       -0.06654467 0.3126532 0.0823717 0.06048871
000090 7f 3b 03 bd 51 f2 c8 bc 18 45 35 bd 82 a4 f2 3b
       -0.03203916 -0.024529608 -0.044255346 0.0074048648
0000a0 f5 bd 74 bc f6 d8 1d bd a7 4c c2 3d a5 c1 8e 3b
       -0.014937867 -0.03853699 0.094872765 0.0043565803
0000b0 2b d5 bd 3b b7 16 a5 bc 60 e8 02 bd c9 6f f5 bc
       0.005793234 -0.020152433 -0.03195989 -0.02996053
0000c0 06 f7 73 bc a2 22 f1 3b 5c 40 25 3c 55 05 a3 bc
       -0.014890438 0.007358865 0.010086145 -0.019900003
0000d0 a1 ec 00 be 31 6c 5b bd e0 3b b6 bb 31 a8 63 bc
       -0.12590267 -0.053569976 -0.005561337 -0.01389508
0000e0 b2 fe 81 bb 84 05 8e bc 4d 2f 1d bc 53 65 a4 3b
       -0.0039671296 -0.017336614 -0.009593797 0.0050169616
0000f0 da 87 01 bd c8 c3 af 3d 97 0d 9b bd cb 64 70 bb
       -0.0316237 0.08582264 -0.075709514 -0.003668117

layer3.weight f4 [2, 64]
000000 3d a4 33 bf e6 82 08 3c bb 67 15 bc fa 8f 0c c0
       -0.7017248 0.00833199 -0.00911897 -2.1962876
000010 75 a1 41 bf bf 75 38 3d 41 b7 49 bf b1 e2 67 bf
       -0.7563699 0.045034166 -0.7879525 -0.9058028
000020 1d 9a 87 bb 9e 7f 9a bc 9d ff c5 bb 36 16 96 3c
       -0.004138245 -0.01885968 -0.0060424344 0.018321138
000030 e0 8d 78 bf de 09 a7 bc a7 f1 cf be 63 39 24 bf
       -0.97091484 -0.020390447 -0.40614054 -0.64150065
000040 96 ca 39 bc 9a 91 17 3c 7c cb 13 3d 0c 91 b7 3b
       -0.011339804 0.009251023 0.03608273 0.0056020077
000050 38 04 75 3c 99 c8 ab bb d1 60 dc bb 79 93 c7 bc
       0.014954619 -0.005242419 -0.0067254086 -0.024362313
000060 32 60 db 3d 76 3d 96 bd 5c 73 23 bb 5d 28 b2 be
       0.10711707 -0.073359415 -0.0024940586 -0.3479642
000070 dc b4 21 bf 97 cc 1a 3c aa ce c1 bc 0f 7a d1 bc
       -0.63166595 0.009448192 -0.023658115 -0.025570897
000080 ed 9e 19 bd 8c 43 90 bf ea 9d 4d bf 11 22 3e bf
       -0.03750508 -1.1270614 -0.8031908 -0.7427073
000090 cb bc b8 3c ec 1d 54 3b 6b be e9 ba 17 47 06 bd
       0.022550961 0.0032366468 -0.0017833238 -0.03278264
0000a0 d2 0a 60 3c 88 55 b7 3c 08 66 ec be 51 27 0b bc
       0.013674455 0.022379652 -0.46171594 -0.0084932605
0000b0 56 1f 77 bb 5b 2a ee 3b d5 d2 bd bc aa 31 97 3c
       -0.0037707887 0.0072682328 -0.023171822 0.018456299
0000c0 b2 2e 0e bc c5 4f b9 be ba 8d 58 bf 69 15 17 bc
       -0.008678125 -0.36193672 -0.8459126 -0.009221413
0000d0 4c 56 51 bd dd ab 9a 3c 16 0f 4b 3c 22 41 24 bc
       -0.05110769 0.018880779 0.0123937335 -0.0100252945
0000e0 84 36 fe 3b e6 e6 d6 bc 6d 64 89 bc ba 6c 9e bf
       0.0077579636 -0.026233148 -0.01677152 -1.2376931
0000f0 57 81 9b bb e1 4c 27 bf 4c 3a 77 bd e3 db 3f bb
       -0.004745643 -0.6535168 -0.06035833 -0.002927535
000100 39 6d 0d bf 84 91 4f 3d 7d 43 0c 3a ab 3a 91 bf
       -0.55244786 0.050675884 0.0005350633 -1.1346029
000110 93 15 25 bf ad 3f 6a 3c 57 c3 37 bf b4 0c c2 be
       -0.64486045 0.014297408 -0.7178244 -0.37900317
000120 ac aa d1 3a 16 0e b6 bb 6b 20 29 bc ff 75 10 3d
       0.0015996299 -0.0055558784 -0.01032267 0.03526878
000130 6a 34 ce 3e cc a0 a1 3b 67 d4 87 bf f2 1d 0c bf
       0.40274364 0.0049324986 -1.0611695 -0.5473319
000140 8a c7 40 3d cf 5d 23 bc 25 24 e7 3c 38 00 c7 3b
       0.047065295 -0.009971096 0.028215477 0.006073024
000150 80 fb 82 bc 84 8e df b9 12 1b 6c bc c3 15 a4 3a
       -0.015989065 -0.00042640057 -0.014410751 0.0012518693
000160 a4 51 70 3c 19 33 99 3b e6 03 d1 3b e7 81 58 bf
       0.014667902 0.004675281 0.0063786386 -0.84573215
000170 0d 28 e3 bf 3d e4 00 bc 17 6a 1d 3c e8 34 c8 bb
       -1.7746598 -0.007866916 0.009607813 -0.0061098225
000180 6e 8c 42 bd 33 63 46 3e 37 aa 46 bf 04 32 22 bf
       -0.047497205 0.19373779 -0.7760348 -0.6335757
000190 50 a0 95 bb 65 d5 79 3b 25 17 0a 3d 2c c7 24 3c
       -0.00456623 0.0038121578 0.03371348 0.010057252
0001a0 96 1f b8 3b 36 5c 01 3c 1f 22 30 bf 19 87 16 bc
       0.0056189997 0.00789552 -0.68802065 -0.009187483
0001b0 7c 39 97 3c 4c 8c c4 3c 65 31 7a bc aa 07 7c bc
       0.018460028 0.02399268 -0.015270566 -0.015382687
0001c0 4d 77 9b 3c c3 41 82 bf f2 78 b2 be 89 ad 29 3c
       0.018977785 -1.0176319 -0.348579 0.010356315
0001d0 a9 d0 0c bd 1a 6e 16 3c ac fb aa bc 5f a7 bc 3c
       -0.03437868 0.009181524 -0.02087196 0.023029028
0001e0 8c 1c bb 3b 73 30 23 3c 49 a3 66 3b a7 e3 85 be
       0.00571019 0.009960282 0.003519254 -0.26150247
0001f0 10 02 1e 3c e6 56 81 bf 06 97 8b bd 25 b0 da bb
       0.009644046 -1.0104644 -0.06815915 -0.00667383

layer3.bias f4 [2]
000000 83 3c 3a 3f c9 a3 1c 3f
       0.72748584 0.61187416
